…
      "outputs": [
        {
          "output_type": "stream",
          "text": [
            "Downloading data from https://storage.googleapis.com/tensorflow/tf-keras-datasets/mnist.npz\n",
            "11493376/11490434 [==============================] - 0s 0us/step\n",
            "Model: \"sequential\"\n",
            "_________________________________________________________________\n",
            "Layer (type)                 Output Shape              Param #   \n",
            "=================================================================\n",
            "conv2d (Conv2D)              (None, 24, 24, 6)         156       \n",
            "_________________________________________________________________\n",
            "max_pooling2d (MaxPooling2D) (None, 12, 12, 6)         0         \n",
            "_________________________________________________________________\n",
            "conv2d_1 (Conv2D)            (None, 8, 8, 16)          2416      \n",
            "_________________________________________________________________\n",
            "max_pooling2d_1 (MaxPooling2 (None, 4, 4, 16)          0         \n",
            "_________________________________________________________________\n",
            "flatten (Flatten)            (None, 256)               0         \n",
            "_________________________________________________________________\n",
            "dense (Dense)                (None, 120)               30840     \n",
            "_________________________________________________________________\n",
            "dense_1 (Dense)              (None, 84)                10164     \n",
            "_________________________________________________________________\n",
            "dense_2 (Dense)              (None, 10)                850       \n",
            "=================================================================\n",
            "Total params: 44,426\n",
            "Trainable params: 44,426\n",
            "Non-trainable params: 0\n",
            "_________________________________________________________________\n",
            "Epoch 1/20\n",
            "469/469 [==============================] - 23s 48ms/step - loss: 0.3203 - accuracy: 0.9077 - val_loss: 0.0849 - val_accuracy: 0.9724\n",
…
